checkpoint.pt (torch, 623853 bytes, 8 tensors)

conv1.0.weight f4 [32, 1, 5, 5]
-0.2620164 -0.22444607 -0.098345585 -0.2965628 -0.1099956 -0.31592214 -0.022620564 -0.2740237
-0.122713216 -0.23024462 0.0549297 -0.058053333 -0.009578839 -0.12131358 0.0769747 -0.21972257
-0.23206444 -0.12890135 -0.05654477 -0.26377243 -0.19501683 -0.009985537 -0.07809681 -0.09478066
-0.055850066 -0.25815082 -0.14209577 -0.17106079 -0.23096685 -0.1662824 0.0003488461 -0.067139305
-0.0858627 -0.18261194 -0.19842732 -0.09079744 -0.04275845 -0.0056888065 -0.079143494 -0.14817034
-0.14150187 -0.069161676 -0.22493146 -0.1616407 -0.11935195 -0.14979705 -0.020779122 -0.012303351
-0.1271212 -0.19243278 -0.28214562 -0.24525698 0.10921342 -0.3024034 -0.0050897584 -0.2287446
-0.24827571 -0.10965803 -0.033839237 -0.26539373 -0.12702513 -0.012323496 -0.06618885 -0.018769687
-0.020124296 -0.050506834 -0.0038411138 -0.0011469955 -0.25849974 -0.12847531 -0.14399216 -0.10309475
-0.04633735 -0.14922066 -0.025811011 -0.012261614 -0.27383876 -0.2078291 -0.19604516 0.033016287
0.11297551 -0.060323272 -0.03653745 -0.1320957 -0.050302677 0.0012546171 0.01489244 0.036728367
-0.111361265 -0.09195829 0.014702581 0.027031185 0.08074695 -0.09394476 -0.004831366 0.08897184
-0.10195767 -0.10216119 -0.24383658 -0.04691005 -0.16986585 0.0893992 -0.09201487 0.04045804
-0.22056001 0.014950528 -0.021473821 -0.23719198 -0.07494327 -0.00410008 -0.14944693 0.031495787
-0.030414276 -0.023599142 -0.21317053 -0.12580694 -0.12303803 -0.21675368 0.052196905 0.061199553
-0.06632724 -0.23558009 -0.022427678 -0.14820804 -0.07063601 -0.20182799 -0.33494863 -0.14813782
-0.041084886 -0.0245491 -0.12620643 -0.19913282 0.03584812 -0.18979242 -0.008921214 -0.006440091
-0.16759357 0.034386538 -0.15776338 -0.14466202 -0.28914848 -0.031635404 -0.1523892 -0.099673145
-0.18406302 -0.02066941 -0.06757323 -0.2373997 -0.076972805 -0.11653891 -0.075437054 -0.2041051
0.01680521 -0.10539704 -0.031635854 -0.2649365 -0.12601854 -0.05298672 -0.25526154 -0.2783563
-0.13948904 -0.093304634 -0.112894945 0.06816245 -0.15799364 -0.23259543 -0.03484519 0.03682155
-0.08643719 -0.22536103 -0.112347566 -0.26759487 -0.19213775 -0.26398572 -0.27680254 0.07053584
0.09869308 -0.21231695 0.05195463 -0.32826775 -0.22447522 -0.018660787 -0.124368206 0.017280042
-0.15798415 0.008657554 0.0038413196 -0.16363484 -0.0143844895 -0.05979138 -0.20895915 -0.08112862
-0.14469634 -0.15267554 -0.27080628 -0.14445312 -0.07756698 0.054371852 -0.0345666 0.092114404
-0.1355154 -0.35461828 0.018340373 -0.13591419 -0.19636087 -0.17986915 -0.015888799 0.014018429
-0.29021078 0.0071041915 -0.18355241 -0.087490186 -0.075093806 -0.1464972 -0.13309254 -0.19902827
-0.2292321 -0.098090425 -0.09620417 -0.03775502 -0.11045589 -0.22519732 -0.028014481 -0.09091982
-0.031813882 -0.0050416607 -0.07395101 -0.00027930684 -0.0047567934 -0.18733269 -0.26085454 -0.21064752
-0.09105556 -0.109863006 -0.062019147 -0.13127041 0.019874362 -0.1323823 -0.15407817 -0.07200912
-0.069673225 0.0945926 0.09266974 -0.1558816 -0.040604077 -0.14408332 -0.2716582 -0.25753823
-0.24562296 -0.29580855 -0.0053853896 -0.26986325 -0.13339181 -0.08871796 -0.15364403 -0.22456434
00000000: 0327 86be 31d5 65be 6969 c9bd 14d7 97be
00000010: 6045 e1bd 8cc0 a1be c34e b9bc d64c 8cbe
00000020: 1151 fbbd 3fc5 6bbe f7fd 603d 55c9 6dbd
00000030: 90f0 1cbc 4173 f8bd e9a4 9d3d f4fe 60be
00000040: 4da2 6dbe b7fe 03be 7d9b 67bd 2e0d 87be
00000050: 7eb2 47be 619a 23bc 38f1 9fbd 5d1c c2bd
00000060: 0ac3 64bd 582c 84be 8e81 11be 8f2a 2fbe
00000070: 9382 6cbe ef45 2abe 55e5 b639 5580 89bd
00000080: c9d8 afbd a0fe 3abe 8830 4bbe 02f4 b9bd
00000090: 7c23 2fbd 2b69 babb fc15 a2bd f7b9 17be
000000a0: dee5 10be a3a4 8dbd 6f54 66be 2485 25be
000000b0: cc6e f4bd 6664 19be fa38 aabc ff93 49bc
000000c0: 0f2c 02be 190d 45be 6475 90be a524 7bbe
000000d0: 49ab df3d 9ed4 9abe fdc7 a6bb 063c 6abe
000000e0: fd3b 7ebe 6494 e0bd 039b 0abd b0e1 87be
000000f0: e012 02be 7de8 49bc 058e 87bd e3c2 99bc
00000100: b5db a4bc 41e0 4ebd 32bb 7bbb c856 96ba
00000110: 145a 84be 088f 03be ae72 13be 5723 d3bd
00000120: 3ccc 3dbd 4dcd 18be 9d71 d3bc f0e4 48bc
00000130: 9834 8cbe 27d1 54be 10c0 48be 163c 073d
00000140: b45f e73d 8915 77bd 4ba8 15bd 1844 07be
00000150: 2e0a 4ebd f771 a43a 6cff 733c 7c70 163d
00000160: 6011 e4bd a154 bcbd 18e3 703c 8170 dd3c
00000170: a85e a53d 1c66 c0bd 6f50 9ebb de36 b63d
00000180: 2fcf d0bd e339 d1bd 4cb0 79be c124 40bd
00000190: 50f1 2dbe ee16 b73d 4b72 bcbd 54b7 253d
000001a0: 7cda 61be 0ff3 743c dee9 afbc 74e2 72be
000001b0: db7b 99bd f759 86bb 9e08 19be ba01 013d
000001c0: 5c27 f9bc fd52 c1bc 6049 5abe 89d3 00be
000001d0: 5dfb fbbd adf4 5dbe 6ccc 553d 62ac 7a3d
000001e0: 93d6 87bd e83b 71be 40ba b7bc d9c3 17be
000001f0: 9da9 90bd ffab 4ebe 637e abbe 71b1 17be
00000200: a048 28bd 321b c9bc 423c 01be 79e9 4bbe
00000210: 7ad5 123d f258 42be 492a 12bc 6607 d3bb
00000220: a69d 2bbe e6d8 0c3d b98c 21be 4822 14be
00000230: 450b 94be 2094 01bd ea0b 1cbe 6f21 ccbd
00000240: 047b 3cbe e552 a9bc d563 8abd e818 73be
00000250: eba3 9dbd f4ab eebd be7e 9abd ed00 51be
00000260: 14ab 893c 67da d7bd 9994 01bd c2a5 87be
00000270: 010b 01be 9a08 59bd a4b1 82be b884 8ebe
00000280: 37d6 0ebe 8016 bfbd 7735 e7bd c198 8b3d
00000290: 16c9 21be 7f2d 6ebe d4b9 0ebd 32d2 163d
000002a0: fb05 b1bd 0bc5 66be 7b16 e6bd 3202 89be
000002b0: c2bf 44be 2329 87be 10b9 8dbe 1875 903d
000002c0: 991f ca3d 9d69 59be 61ce 543d b612 a8be
000002d0: d5dc 65be 82de 98bc c2b4 febd e08e 8d3c
000002e0: 99c6 21be 6ad8 0d3c a6be 7b3b e48f 27be
000002f0: ecac 6bbc cee7 74bd 63f9 55be c326 a6bd
00000300: 472b 14be fa56 1cbe 1fa7 8abe 85eb 13be
00000310: 70db 9ebd 05b5 5e3d b595 0dbd 7aa6 bc3d
00000320: 8dc4 0abe 8790 b5be 8d3e 963c 172d 0bbe
00000330: d312 49be 9e2f 38be 3a29 82bc 8ead 653c
00000340: 8296 94be 47ca e83b 2af5 3bbe 0e2e b3bd
00000350: c8ca 99bd 5d03 16be 6949 08be 11ce 4bbe
00000360: d2bb 6abe a2e3 c8bd b106 c5bd 02a5 1abd
00000370: b336 e2bd 209a 66be a07e e5bc 2c34 babd
00000380: 464f 02bd 8434 a5bb a173 97bd ee6f 92b9
00000390: e0de 9bbb 24d4 3fbe ba8e 85be fcb3 57be
000003a0: 567b babd dbff e0bd ca07 7ebd c06b 06be
000003b0: 8fcf a23c 3a8f 07be abc6 1dbe 8479 93bd
000003c0: d6b0 8ebd c4b9 c13d a2c9 bd3d 6d9f 1fbe
000003d0: 7650 26bd 948a 13be c916 8bbe 0ddc 83be
000003e0: 9684 7bbe 3874 97be ec77 b0bb 842b 8abe
000003f0: dd97 08be c3b1 b5bd dc54 1dbe 32f4 65be

conv1.0.bias f4 [32]
-0.07709149 -0.2424008 -0.25368905 -0.124637686 0.79063016 -0.128895 0.24556173 -0.02562097
0.88756615 -0.06946776 -0.14046575 -0.2204199 -0.1301054 -0.03402839 -0.09043004 -0.006001162
-0.17688061 -0.284481 1.429073 0.38690698 1.6087186 -0.021427779 -0.1670228 -0.031940863
-0.38979983 0.06550504 0.31949696 -0.8952932 -0.05928941 0.58634627 0.0010160765 -0.12360283
00000000: 25e2 9dbd ea37 78be 88e3 81be 0b42 ffbd
00000010: bd66 4a3f 0dfd 03be 8974 7b3e 12e3 d1bc
00000020: 8937 633f 1d45 8ebd 41d6 0fbe c1b5 61be
00000030: 5a3a 05be 5a61 0bbd 6333 b9bd 65a5 c4bb
00000040: 3120 35be 7ea7 91be ddeb b63f ac18 c63e
00000050: 7eea cd3f 4f89 afbc 0608 2bbe 6cd4 02bd
00000060: d893 c7be 8227 863d 1b95 a33e ef31 65bf
00000070: 74d9 72bd ca1a 163f df2d 853a 7b23 fdbd

conv2.0.weight f4 [64, 32, 5, 5]
-0.038841795 -0.10840829 -0.06448354 -0.057081383 -0.040403735 -0.05258794 -0.07070888 -0.0257949
-0.04108828 -0.05600361 -0.0821215 -0.021249598 -0.08718479 -0.060106 -0.02664862 -0.05834121
-0.08114259 -0.09616913 -0.06792696 -0.07536975 -0.0891065 -0.04919577 -0.0023166281 -0.056998752
-0.103532664 -0.077318355 -0.090689 -0.033383623 -0.036209777 -0.10743996 -0.057676222 -0.03802554
-0.030270811 -0.093775414 -0.07728037 -0.066874534 -0.030129028 -0.094702825 -0.045160197 -0.12276882
-0.04666377 -0.09175299 -0.05735904 -0.03520235 -0.11461034 -0.022486491 0.030398313 -0.041327566
-0.050776847 -0.019318812 -0.025860362 -0.032808572 -0.07958711 -0.0770573 -0.10163633 -0.11073801
-0.07143007 -0.071556166 -0.05880858 -0.024227418 -0.01821491 -0.038507134 -0.056309335 -0.054393504
-0.027810806 -0.016892156 -0.054204877 -0.02784596 -0.068886966 -0.084323734 -0.08543683 -0.05174715
-0.07720863 -0.038215622 -0.04584497 -0.090173885 -0.05168939 -0.049829155 -0.06711788 -0.04178668
-0.04092538 -0.026254555 -0.08100669 -0.043453123 -0.07515434 -0.0724116 -0.03166457 -0.062407468
-0.027164135 -0.055635836 -0.05858665 -0.089880034 -0.0765022 -0.04363055 -0.07592933 -0.053345125
-0.043670088 -0.057815414 -0.10664697 -0.022439936 -0.07039443 -0.02714062 -0.082949206 -0.05009415
-0.09853325 -0.06901461 -0.05872335 -0.05772858 -0.059104897 -0.05564865 -0.075881675 -0.06887283
-0.08449813 -0.06503423 -0.082547605 -0.05549474 -0.10356459 -0.07612479 -0.04648342 -0.06919759
-0.040231902 -0.076373495 -0.06111669 -0.04817764 -0.065159686 -0.028409531 -0.105313666 -0.048759967
-0.08548203 -0.045279235 -0.040343747 -0.019099712 -0.036762305 -0.02621809 -0.06571223 -0.046235643
-0.100178234 -0.06966629 -0.10537411 -0.04653387 -0.06611697 -0.077023275 -0.049443632 -0.06073295
-0.027071167 -0.090673 -0.01749868 -0.048353 -0.073131636 -0.10552882 -0.027203666 -0.09766612
-0.039071392 -0.0846068 -0.111408554 -0.07371288 -0.02225288 -0.010608826 -0.07129186 -0.103781365
-0.047433387 -0.0899352 -0.041226797 -0.08050228 -0.10519222 -0.0505081 -0.062614694 -0.04898798
-0.081205845 -0.09320918 -0.053052843 -0.028691038 -0.07081361 -0.07374276 -0.06530821 -0.039046604
-0.030794213 -0.03832021 -0.05643659 -0.066258386 -0.081149586 -0.047878068 -0.07611128 -0.0838036
-0.04438485 -0.07024552 -0.06074572 -0.04220923 -0.049463034 -0.049262516 -0.03883052 -0.08004218
-0.023447981 -0.06292788 -0.028308708 -0.023031604 -0.030213395 -0.029724175 -0.06345332 -0.06489118
-0.074670345 -0.08822562 -0.07603758 -0.069854684 -0.09417473 -0.06932462 -0.056291554 -0.052060593
-0.060258303 -0.09860317 -0.06437128 -0.044103228 -0.072993964 -0.05115646 -0.0470523 -0.044998147
-0.047939543 -0.043056298 -0.071789995 -0.05801326 -0.10997371 -0.085513696 -0.05418102 -0.06348929
-0.06742124 -0.06666765 -0.07709291 -0.015485388 -0.058708914 -0.05425526 -0.052258417 -0.059104845
-0.06270281 -0.100129835 -0.02256363 -0.08877908 -0.03909341 -0.05003916 -0.103887394 -0.06408328
-0.04058784 -0.06037744 -0.07892788 -0.022392143 -0.07050427 -0.0408951 -0.09684103 -0.03690364
-0.037738398 -0.08120802 -0.085588634 -0.027657447 -0.050366607 -0.088757165 -0.06357715 -0.064782284
00000000: 9318 1fbd 2a05 debd f20f 84bd 2bce 69bd
00000010: 637e 25bd 7466 57bd d1cf 90bd d34f d3bc
00000020: 2f4c 28bd 0b64 65bd 512f a8bd a313 aebc
00000030: f08d b2bd b631 76bd 354e dabc 31f7 6ebd
00000040: 162e a6bd 52f4 c4bd 4a1d 8bbd 755b 9abd
00000050: 787d b6bd 8181 49bd 92d2 17bb 8677 69bd
00000060: ef08 d4bd 1659 9ebd 28bb b9bd 44bd 08bd
00000070: b450 14bd 7b09 dcbd e73d 6cbd abc0 1bbd
00000080: 7efa f7bc 530d c0bd 2c45 9ebd 84f5 88bd
00000090: 27d1 f6bc 8ef3 c1bd e6f9 38bd 386e fbbd
000000a0: 8222 3fbd fee8 bbbd 50f1 6abd 5730 10bd
000000b0: d3b8 eabd 9735 b8bc e205 f93c 1847 29bd
000000c0: 62fb 4fbd 7c42 9ebc 1cd9 d3bc 4862 06bd
000000d0: 91fe a2bd 38d0 9dbd b526 d0bd 9cca e2bd
000000e0: ee49 92bd 0a8c 92bd 44e1 70bd 9478 c6bc
000000f0: 6f37 95bc a8b9 1dbd 9ea4 66bd b9cb 5ebd
00000100: 7dd3 e3bc 6b61 8abc ef05 5ebd 361d e4bc
00000110: 9c14 8dbd ecb1 acbd 81f9 aebd d2f4 53bd
00000120: 8f1f 9ebd fc87 1cbd efc7 3bbd 16ad b8bd
00000130: 41b8 53bd a819 4cbd 1975 89bd 8328 2bbd
00000140: 5fa1 27bd cb13 d7bc d6e6 a5bd e7fb 31bd
00000150: 85ea 99bd 884c 94bd b5b2 01bd f99e 7fbd
00000160: 5287 debc 67e2 63bd 8ef8 6fbd 0613 b8bd
00000170: 2fad 9cbd f3b5 32bd d680 9bbd 6b80 5abd
00000180: 68df 32bd dbcf 6cbd ba69 dabd f5d3 b7bc
00000190: f42a 90bd 0156 debc 46e1 a9bd 862f 4dbd
000001a0: cdcb c9bd 8857 8dbd e587 70bd ce74 6cbd
000001b0: fa17 72bd d7ef 63bd da67 9bbd 330d 8dbd
000001c0: 5b0d adbd ab30 85bd b80e a9bd 744e 63bd
000001d0: ac19 d4bd 50e7 9bbd 6665 3ebd 77b7 8dbd
000001e0: 35ca 24bd b569 9cbd 7f55 7abd eb55 45bd
000001f0: 7172 85bd 1bbb e8bc b1ae d7bd 88b8 47bd
00000200: 3411 afbd b876 39bd 7c3f 25bd 0077 9cbc
00000210: 1294 16bd 52c7 d6bc 2294 86bd 9661 3dbd
00000220: 3f2a cdbd 33ad 8ebd 62ce d7bd 4d9a 3ebd
00000230: 5568 87bd 61be 9dbd 6885 4abd 1dc3 78bd
00000240: 5ac4 ddbc c4b2 b9bd 6459 8fbc cc0d 46bd
00000250: 0ac6 95bd 7e1f d8bd 39da debc 2d05 c8bd
00000260: 5309 20bd 5446 adbd 2b2a e4bd c7f6 96bd
00000270: ac4b b6bc a4d0 2dbc 7701 92bd 538b d4bd
00000280: 8349 42bd f22f b8bd 6edd 28bd 61de a4bd
00000290: 056f d7bd 95e1 4ebd 223c 80bd 9fa7 48bd
000002a0: 404f a6bd 74e4 bebd f04d 59bd 7809 ebbc
000002b0: ba06 91bd 7206 97bd 50c0 85bd 55ef 1fbd
000002c0: 2544 fcbc a7f5 1cbd 0e2a 67bd 7ab2 87bd
000002d0: c131 a6bd cb1b 44bd 3be0 9bbd 39a1 abbd
000002e0: e3cc 35bd e2dc 8fbd 81d0 78bd 96e3 2cbd
000002f0: c099 4abd 7ec7 49bd c00c 1fbd 28ed a3bd
00000300: fb15 c0bc 55e0 80bd aae7 e7bc c6ac bcbc
00000310: 1582 f7bc 1d80 f3bc d0f3 81bd abe5 84bd
00000320: c4ec 98bd a2af b4bd 97b9 9bbd f90f 8fbd
00000330: aede c0bd 11fa 8dbd f991 66bd 7d3d 55bd
00000340: 69d1 76bd 75f0 c9bd 17d5 83bd 96a5 34bd
00000350: dc7d 95bd 7089 51bd eab9 40bd fa4f 38bd
00000360: 415c 44bd cd5b 30bd a206 93bd 509f 6dbd
00000370: e539 e1bd ce21 afbd ebec 5dbd ac06 82bd
00000380: 2614 8abd 0d89 88bd e3e2 9dbd 6db6 7dbc
00000390: c278 70bd c33a 5ebd ec0c 56bd ec17 72bd
000003a0: 556a 80bd df10 cdbd 5dd7 b8bc ced1 b5bd
000003b0: 6920 20bd ddf5 4cbd eac2 d4bd 183e 83bd
000003c0: 6f3f 26bd 564e 77bd f1a4 a1bd ba6f b7bc
000003d0: 8b64 90bd 9f81 27bd 9754 c6bd 4528 17bd
000003e0: 9493 1abd 6450 a6bd 1849 afbd df91 e2bc
000003f0: 374d 4ebd 51c6 b5bd bd34 82bd 93ac 84bd

conv2.0.bias f4 [64]
-0.051856153 -0.48141593 0.17667702 -0.20182128 -0.09015372 0.6573539 -0.047827777 -0.3558211
-0.03359922 -0.034056008 -0.07338882 -0.08982506 -0.016076226 -0.049263574 0.28166652 -0.14478968
-0.20348455 1.4156913 0.4928943 -0.06286923 -0.024587058 -0.07682628 -0.07843294 -0.07765519
-0.54577756 -0.07517281 -0.12602532 -0.2275716 -0.088892564 -0.3126049 -0.02968997 -0.070309326
-0.056677412 1.2842091 -0.5867281 -0.059655458 -0.11962292 -0.08030168 -0.5644687 -0.18748991
-0.028636664 -0.035900787 -0.09036051 -0.08383057 -0.09854528 -0.11449871 -0.11903988 2.2209034
0.12674856 -0.07763401 -0.07424485 -0.0693633 0.5410976 0.09235619 -0.7914082 0.12804471
-0.20375901 -0.06153829 -0.0818659 -0.06470106 -0.014220533 -0.14194 -0.08296102 0.3123281
00000000: 1e67 54bd 267c f6be d2ea 343e 3daa 4ebe
00000010: 83a2 b8bd 5848 283f 0fe7 43bd 2f2e b6be
00000020: 569f 09bd 507e 0bbd e14c 96bd 33f6 b7bd
00000030: 4ab2 83bc 9ac8 49bd 9836 903e bf43 14be
00000040: 415e 50be 5f35 b53f a45c fc3e 95c1 80bd
00000050: cc6a c9bc 1957 9dbd 73a1 a0bd af09 9fbd
00000060: 14b8 0bbf 34f4 99bd c80c 01be 8808 69be
00000070: 4e0d b6bd c00d a0be 6138 f3bc 56fe 8fbd
00000080: 9326 68bd f760 a43f d033 16bf 4859 74bd
00000090: ddfc f4bd 3575 a4bd 0581 10bf 5bfd 3fbe
000000a0: 7097 eabc b40c 13bd ee0e b9bd 5daf abbd
000000b0: 1cd2 c9bd 4d7e eabd 2ecb f3bd 4823 0e40
000000c0: 60ca 013e 94fe 9ebd af0d 98bd 590e 8ebd
000000d0: 5f85 0a3f 3e25 bd3d ba99 4abf 271e 033e
000000e0: 34a6 50be 930f 7cbd 4fa9 a7bd fd81 84bd
000000f0: 3dfd 68bc b858 11be 78e7 a9bd 78e9 9f3e

conv3.0.weight f4 [64, 64, 5, 5]
-0.0669301 -0.06189528 -0.059418913 -0.07057499 -0.017033707 -0.025445702 -0.057741214 -0.030963242
-0.039508816 -0.033165716 -0.036331147 -0.01467978 -0.040729545 0.040605195 -0.05112345 -0.0407853
-0.033329878 -0.040750366 -0.056224253 -0.035790797 -0.0032029187 0.028476799 0.0779923 -0.05958269
0.06800002 0.13104281 0.20671424 0.055924136 0.081683226 0.06819428 0.055414554 0.065004446
0.06618516 0.049434047 0.08122568 0.07963381 0.061327193 0.084405005 0.060484584 0.07076456
0.07631215 0.048791453 0.040426385 0.05916429 0.03841619 0.06900897 0.06507093 0.047132023
0.089589246 0.054361653 0.28424287 -0.52276295 -0.32716888 -0.13933818 -0.08379795 0.2694273
-0.40928975 -0.11754919 -0.35201934 0.21585654 -0.060421087 0.31188154 -0.22077413 0.004711477
-0.33527082 0.2320678 -0.29718852 -0.7611883 -0.08940016 -0.16707526 0.10381766 -0.23332702
-0.38882965 0.14984009 0.0020001477 0.40810585 0.07019681 0.060794286 0.051909804 -0.19315454
0.06528678 0.047155656 0.035901055 0.043411534 0.070319004 0.099465206 0.028791003 -0.0066161477
-0.045527384 0.039738256 -0.021327106 0.024562767 -0.07257064 0.059051514 0.16326761 0.0018671692
-0.019083366 -0.027025124 0.13497908 0.05985002 0.06695186 0.04618066 0.036443368 0.04893348
0.056153446 0.037015323 0.043870173 0.07667134 0.04820473 0.040532753 0.08292444 0.057741567
0.038710795 0.04969101 0.057983395 0.07687724 0.04937804 0.053807966 0.075912364 0.066135
0.04487898 0.07254005 0.056912825 0.081586175 0.07655969 0.081021465 -0.27518985 -0.42041087
-0.5575059 0.0005841417 -0.20325713 -0.3325134 -0.38289142 -0.21975762 0.10034793 0.18001929
-0.20075575 -0.14666557 0.016171662 0.07892239 0.111169465 0.121593654 -0.007247463 -0.10947969
-0.16660357 0.043298103 -0.025714062 0.13243127 -0.23401408 -0.46812633 -0.07124494 0.044561047
0.06979211 0.022764012 0.059389103 0.05290597 0.04936995 0.054845188 0.06584324 0.05440222
0.03134461 0.049802788 0.062495947 0.041922648 0.049075946 0.006306446 0.02671575 0.04102368
0.056424912 0.071727894 -0.027093953 0.029636174 0.05031035 -0.019152096 0.07196961 0.06488905
-0.0009258541 -0.059112586 -0.014665756 0.044530712 0.009946977 0.020587334 0.05293393 0.0022518095
0.13405718 0.030362736 0.051228534 0.056747966 -0.01194916 0.015467862 0.057516724 0.06018252
0.049192257 0.0761086 0.0034684436 0.07641618 0.042205222 0.07394531 0.07407629 0.028189575
0.025224255 0.04238712 0.0056600496 -0.013057995 -0.038982596 0.062343635 -0.0048604 0.0043106684
0.04401164 -0.0055049234 -0.017927319 0.061682798 0.0011676173 -0.014375627 0.018316545 0.0022040012
0.003408926 0.039671075 0.002352785 0.044341106 -0.01246378 0.040191974 0.06295174 0.0149522945
-0.03770738 0.06570755 0.02399964 -0.0006968891 -0.002631977 0.0017883163 -0.03948036 0.009349054
0.04614699 0.024288531 0.04827821 -0.05447021 0.011000444 -0.003657816 0.06698981 0.05892191
0.04352447 0.015109167 0.041329056 -0.009323333 0.03941345 0.010173937 0.0052981316 -0.014276996
-0.079261586 0.04831062 -0.059169564 -0.0433565 -0.098459095 -0.06941963 -0.04371288 -0.06839012
00000000: a612 89bd e885 7dbd 3f61 73bd 9f89 90bd
00000010: 468a 8bbc 8173 d0bc 0d82 6cbd a0a6 fdbc
00000020: ffd3 21bd c6d8 07bd f8cf 14bd 7683 70bc
00000030: 06d4 26bd a251 263d d366 51bd 7d0e 27bd
00000040: e984 08bd dbe9 26bd 674b 66bd 5f99 12bd
00000050: 0fe8 51bb 2d48 e93c 6dba 9f3d fb0c 74bd
00000060: 9843 8b3d 1630 063e e6ac 533e b510 653d
00000070: 8949 a73d 71a9 8b3d 5ffa 623d 0d21 853d
00000080: 168c 873d 5b7b 4a3d a659 a63d 0d17 a33d
00000090: 3932 7b3d 88dc ac3d afbe 773d 02ed 903d
000000a0: 8b49 9c3d 8cd9 473d 2396 253d 4156 723d
000000b0: 4b5a 1d3d 9354 8d3d e843 853d 820d 413d
000000c0: 917a b73d 53aa 5e3d 4888 913e cbd3 05bf
000000d0: ae82 a7be abae 0ebe 429e abbd 60f2 893e
000000e0: 6d8e d1be a1bd f0bd e13b b4be 7f09 5d3e
000000f0: 1a7c 77bd f0ae 9f3e 9d12 62be bc62 9a3b
00000100: 9ea8 abbe 2ea3 6d3e 1829 98be 3ddd 42bf
00000110: 6e17 b7bd c715 2bbe 5a9e d43d 47ed 6ebe
00000120: ae14 c7be ae6f 193e e914 033b 40f3 d03e
00000130: 58c3 8f3d 6e03 793d 609f 543d 4eca 45be
00000140: 13b5 853d 4a26 413d fc0c 133d 4bd0 313d
00000150: 6903 903d 6ab4 cb3d 1cdb eb3c 45cc d8bb
00000160: ec7a 3abd 95c4 223d 2fb6 aebc db37 c93c
00000170: ea9f 94bd 00e0 713d a02f 273e cdbb f43a
00000180: b854 9cbc cb63 ddbc f537 0a3e 4b25 753d
00000190: 0f1e 893d ef27 3d3d a445 153d 796e 483d
000001a0: 2801 663d 619d 173d 36b1 333d dd05 9d3d
000001b0: 5372 453d ac05 263d 4ad4 a93d 6c82 6c3d
000001c0: 368f 1e3d cd88 4b3d ff7f 6d3d d071 9d3d
000001d0: a140 4a3d be65 5c3d f177 9b3d c971 873d
000001e0: 05d3 373d e18f 943d 6c1d 693d a716 a73d
000001f0: 54cb 9c3d 95ee a53d afe5 8cbe 1840 d7be
00000200: b5b8 0ebf 1621 193a a322 50be 323f aabe
00000210: 580a c4be 2408 61be 3783 cd3d fa56 383e
00000220: ea92 4dbe 802f 16be 6f7a 843c 10a2 a13d
00000230: d1ac e33d 1806 f93d 207c edbb e336 e0bd
00000240: 209a 2abe 5a59 313d 4ca6 d2bc 109c 073e
00000250: 63a1 6fbe 41ae efbe dee8 91bd a585 363d
00000260: 2aef 8e3d 987b ba3c fd41 733d eeb3 583d
00000270: 2538 4a3d 59a5 603d d2d8 863d ddd4 5e3d
00000280: 3563 003d 02fe 4b3d c0fb 7f3d 15b7 2b3d
00000290: dc03 493d 4ea6 ce3b fdda da3c 7208 283d
000002a0: cf1d 673d 13e6 923d 23f4 ddbc 90c7 f23c
000002b0: 3a12 4e3d dbe4 9cbc ce64 933d 8de4 843d
000002c0: 04b5 72ba 0a20 72bd a448 70bc d665 363d
000002d0: a5f8 223c c5a6 a83c 40d1 583d 1893 133b
000002e0: 4946 093e 46bb f83c 03d5 513d 8e70 683d
000002f0: 69c6 43bc ea6c 7d3c a896 6b3d f281 763d
00000300: d27d 493d d3de 9b3d d44e 633b 1680 9c3d
00000310: 62df 2c3d a470 973d 4fb5 973d d3ed e63c
00000320: 19a3 ce3c 1e9e 2d3d f077 b93b 33f1 55bc
00000330: 37ac 1fbd 0a5c 7f3d fe43 9fbb 8240 8d3b
00000340: 8d45 343d a562 b4bb 50dc 92bc 1aa7 7c3d
00000350: bc0a 993a c087 6bbc 940c 963c 0171 103b
00000360: 4a68 5f3b 237e 223d 2f31 1a3b 059f 353d
00000370: e234 4cbc 57a0 243d d8ec 803d 78fa 743c
00000380: 0e73 1abd ae91 863d e59a c43c 70af 36ba
00000390: 3f7d 2cbb f065 ea3a 28b6 21bd c62c 193c
000003a0: a004 3d3d bef8 c63c 5fbf 453d 281c 5fbd
000003b0: 353b 343c f8b7 6fbb f431 893d 1a58 713d
000003c0: b746 323d 718c 773c a848 293d e5c0 18bc
000003d0: ff6f 213d 96b0 263c f39b ad3b 10ea 69bc
000003e0: e653 a2bd 5be1 453d c95b 72bd 9696 31bd
000003f0: eca4 c9bd e12b 8ebd 470c 33bd 1f10 8cbd

conv3.0.bias f4 [64]
-0.4365633 -0.57210684 -0.06396752 -1.0678205 -0.4064957 -0.28352663 -0.53531116 -0.31456766
-0.77740574 -0.23487735 -0.11147516 -0.7506509 -0.2542693 -0.45038858 -0.8295929 -0.41260403
1.0896492 -0.37872615 -0.25411376 -0.20829469 -0.2345802 -0.09964826 -0.49370524 0.00553197
-1.1005803 -1.5203336 -0.59732354 -0.7949272 -1.379274 -0.2091732 -0.1287108 -0.7817248
-0.9457808 -0.7157968 -0.07995526 -0.36668864 -0.09947375 -0.56573725 -0.4397156 -0.26914605
-0.9521463 -0.8323008 -0.06660121 -0.5429978 0.08695954 -0.98174393 -0.815701 -0.081918426
-0.90823627 0.45006508 -0.21791635 -0.40762225 -0.44288236 -0.069347546 -0.025823409 -0.01709744
-0.73682874 -0.19022429 -0.26416355 -0.21785262 -0.54586005 -0.10293167 -0.12820502 -0.17478065
00000000: 3a85 dfbe 9875 12bf 6701 83bd 58ae 88bf
00000010: 3420 d0be 672a 91be 270a 09bf 030f a1be
00000020: 1004 47bf b083 70be 174d e4bd a82a 40bf
00000030: 962f 82be 5599 e6be 3360 54bf d640 d3be
00000040: a079 8b3f 65e8 c1be 331b 82be 344b 55be
00000050: cb35 70be 6314 ccbd efc6 fcbe 8745 b53b
00000060: d1df 8cbf 4b9a c2bf 32ea 18bf 5980 4bbf
00000070: 0d8c b0bf 8031 56be c4cc 03be 1e1f 48bf
00000080: b11e 72bf 763e 37bf 95bf a3bd 9dbe bbbe
00000090: e5b8 cbbd 28d4 10bf 6722 e1be 83cd 89be
000000a0: dcbf 73bf aa11 55bf 3766 88bd e701 0bbf
000000b0: d817 b23d 9253 7bbf c8d1 50bf d9c4 a7bd
000000c0: 2c82 68bf ee6e e63e 7725 5fbe ddb3 d0be
000000d0: 7ac1 e2be 1606 8ebd 9d8b d3bc ee0f 8cbc
000000e0: cfa0 3cbf 28ca 42be 7240 87be c214 5fbe
000000f0: 7cbd 0bbf d7cd d2bd 2d48 03be b3f9 32be

fc.weight f4 [10, 64]
0.037551224 0.037545636 0.029248385 -0.0068729627 -0.11205608 0.17180851 0.08549655 0.0014130401
-0.08966021 0.028426817 0.01769607 -0.0072294693 -0.075382 -0.017611846 -0.036304984 -0.06390689
0.10457275 -0.13507017 -0.05883259 0.09191723 -0.010772939 -0.10066158 0.08702641 0.06916994
0.07304846 0.029895328 0.056500304 -0.00944417 0.09932699 -0.0013600389 0.078881174 0.21582437
0.12169962 0.030589554 0.040589303 -0.14168121 0.046677094 0.11893652 -0.14084889 -0.027295912
0.016406162 0.051792406 -0.004305933 0.08018062 0.14098947 0.022671258 0.114552386 0.16490142
0.009642751 0.0725419 -0.008350066 -0.23272623 0.031067349 0.1721886 0.02237588 0.07335708
-0.0043442133 0.051319942 0.19315645 0.08859692 0.05066327 -0.033732843 0.10380965 0.003171157
0.031032866 0.014881111 0.048631236 -0.19150794 -0.009133013 -0.09850243 0.0037357484 -0.020453697
-0.054199457 -0.12970893 0.0051513887 -0.06558414 0.12238775 -0.028879123 -0.046490233 -0.055977926
0.14425541 -0.0062874258 0.0006587074 -0.11324053 0.03084734 -0.11349326 -0.06353209 0.13622357
-0.049180098 -0.07736789 -0.034214914 0.09005342 -0.029862765 -0.026250191 0.18144149 -0.06153018
0.10196543 0.031860966 0.05684308 0.024579566 -0.1561417 0.12431938 -0.2734354 0.068648696
-0.05390543 -0.05163879 0.05403691 -0.022556208 -0.051818307 -0.014239969 -0.06191038 -0.0119471485
-0.04040233 0.071493134 -0.05487608 -0.0023056427 0.051921666 0.043539092 -0.104005255 0.08209925
0.099756196 -0.13385195 -0.18354079 0.093731485 -0.014029643 0.014596996 0.04104294 -0.12623602
0.034939054 0.020663815 0.100823924 -0.0055080233 0.053790264 -0.11443213 0.021604996 0.15677875
0.055705193 -0.3555604 0.096470594 0.12223855 0.043702148 0.012094436 -0.01598158 0.09990693
-0.0012942166 0.041919805 -0.33692753 -0.020733804 0.15253288 0.016495287 0.032068264 -0.01755649
0.07713179 0.094658285 0.067875564 0.09871795 0.093577914 -0.039987482 0.09629105 -0.11214647
0.11966056 0.015933666 -0.10307424 -0.058078427 0.16280608 0.03625783 -0.10259585 0.051654488
-0.04832886 -0.03809262 0.074629046 0.008006408 0.009536803 0.102922164 -0.010155585 -0.037579115
0.17395175 -0.40577555 0.030143885 0.07142746 0.09954478 0.13450263 -0.22031923 -0.0315317
0.057563107 0.043430433 -0.06107309 0.021205919 0.090487905 0.15038168 0.16160388 0.061337233
-0.004422112 -0.14769027 0.07560433 0.10414773 0.12534408 0.053200975 -0.052522633 0.058348946
0.07193033 0.047710136 0.15389487 -0.003156517 0.027246904 0.014958308 -0.05068637 0.02120816
-0.14404629 0.008539968 0.06313601 0.07251457 0.18498129 0.021908464 0.10249455 0.04518269
0.016629405 0.06262671 0.060881153 0.017013293 0.08727211 0.16190648 0.016057119 -0.030669384
0.08422695 0.009848251 -0.036276687 -0.13632718 0.12890506 0.013628054 0.04052329 0.010090449
0.052872404 0.045096792 -0.044130627 -0.09067639 -0.0033918552 0.014095287 -0.020091107 0.11192885
0.15011033 0.16351987 0.16778135 0.029641401 -0.08991664 -0.042271238 -0.10319867 -0.05271321
0.03943604 0.04484635 0.14067398 0.029074466 -0.008854704 -0.024105381 0.008093379 -0.034339417
00000000: 50cf 193d 74c9 193d 4f9a ef3c 9736 e1bb
00000010: a87d e5bd 92ee 2f3e d118 af3d c235 b93a
00000020: c69f b7bd 5bdf e83c 59f7 903c 2fe5 ecbb
00000030: e161 9abd b846 90bc 89b4 14bd 9ee1 82bd
00000040: 3d2a d63d d64f 0abe 71fa 70bd 1a3f bc3d
00000050: fb80 30bc a927 cebd e73a b23d f8a8 8d3d
00000060: 6e9a 953d 0ce7 f43c dd6c 673d b8bb 1abc
00000070: f36b cb3d 5543 b2ba 748c a13d 1001 5d3e
00000080: a63d f93d f296 fa3c f840 263d e114 11be
00000090: 7b30 3f3d fd94 f33d b13a 10be ad9b dfbc
000000a0: 3766 863c 4624 543d c918 8dbb bd35 a43d
000000b0: 8b5f 103e 13b9 b93c 719a ea3d ebdb 283e
000000c0: a1fc 1d3c d990 943d b7ce 08bc c94f 6ebe
000000d0: f480 fe3c 3552 303e 9f4d b73c 3d3c 963d
000000e0: e759 8ebb dc34 523d ceca 453e 4d72 b53d
000000f0: 4a84 4f3d 732b 0abd 279a d43d 30d3 4f3b
00000100: a338 fe3c e7cf 733c 8c31 473d a81a 44be
00000110: a2a2 15bc a4bb c9bd 75d3 743b 838e a7bc
00000120: 4000 5ebd 6bd2 04be fbcc a83b fa50 86bd
00000130: 6ea6 fa3d e993 ecbc 8b6c 3ebd 1c49 65bd
00000140: b1b7 133e c006 cebb 1bad 2c3a a7ea e7bd
00000150: 90b3 fc3c 286f e8bd 1d1d 82bd 317e 0b3e
00000160: 1271 49bd 0e73 9ebd f024 0cbd ed6d b83d
00000170: c2a2 f4bc a40a d7bc cccb 393e 1207 7cbd
00000180: 40d3 d03d a580 023d 4ad4 683d 165b c93c
00000190: 9ce3 1fbe 299b fe3d baff 8bbe b097 8c3d
000001a0: f1cb 5cbd 3283 53bd cf55 5d3d ccc7 b8bc
000001b0: 6f3f 54bd c24e 69bc bd95 7dbd f9bd 43bc
000001c0: ea7c 25bd fe6a 923d bec5 60bd 441a 17bb
000001d0: d0ab 543d 0c56 323d b500 d5bd a723 a83d
000001e0: fa4c cc3d 7c10 09be 1ef2 3bbe 4bf6 bf3d
000001f0: 96dc 65bc 3d28 6f3c a41c 283d 0444 01be
00000200: 411c 0f3d 2947 a93c c67c ce3d a67c b4bb
00000210: 2e53 5c3d 645b eabd f6fc b03c 9c8a 203e
00000220: 212b 643d 030c b6be 6092 c53d 3458 fa3d
00000230: 0601 333d be27 463c cdeb 82bc 019c cc3d
00000240: b4a2 a9ba 1ab4 2b3d c481 acbe f0d9 a9bc
00000250: 9431 1c3e 2021 873c 035a 033d a1d2 8fbc
00000260: 46f7 9d3d 34dc c13d 5802 8b3d a32c ca3d
00000270: c7a5 bf3d eac9 23bd 3e34 c53d 0cad e5bd
00000280: 9810 f53d 5287 823c 9618 d3bd a5e3 6dbd
00000290: a3b6 263e 1783 143d c61d d2bd a893 533d
000002a0: 7cf4 45bd 0207 1cbd 1dd7 983d 4f2d 033c
000002b0: 4040 1c3c dbc8 d23d 9c63 26bc 8fec 19bd
000002c0: 6820 323e d0c1 cfbe 4ff0 f63c 8f48 923d
000002d0: 22de cb3d 0fbb 093e 5d9b 61be 6227 01bd
000002e0: 4bc7 6b3d 1ce4 313d c727 7abd 09b8 ad3c
000002f0: b951 b93d a8fd 193e 7d7b 253e c03c 7b3d
00000300: 5de7 90bb 1e3c 17be 71d6 9a3d 684b d53d
00000310: 335a 003e 44e9 593d f921 57bd 4eff 6e3d
00000320: 3550 933d b46b 433d 9e96 1d3e 91dd 4ebb
00000330: e634 df3c b113 753c 839c 4fbd bcbc ad3c
00000340: df80 13be 39eb 0b3c 744d 813d 8582 943d
00000350: bc6b 3d3e 6179 b33c aae8 d13d 7c11 393d
00000360: 643a 883c 6f42 803d 845e 793d 765f 8b3c
00000370: b8bb b23d d0ca 253e 388a 833c 5c3e fbbc
00000380: 2e7f ac3d 8f5a 213c dd96 14bd 5a99 0bbe
00000390: b0ff 033e 3448 5f3c c0fb 253d 6952 253c
000003a0: bc90 583d 6ab7 383d 51c2 34bd 8bb4 b9bd
000003b0: e349 5ebb ebef 663c 1b96 a4bc f43a e53d
000003c0: 86b6 193e c171 273e e0ce 2b3e 86d2 f23c
000003d0: 3726 b8bd 9b24 2dbd d359 d3bd cfe9 57bd
000003e0: af87 213d ceb0 373d d70c 103e 932d ee3c
000003f0: 5213 11bc a678 c5bc 189a 043c 7da7 0cbd

fc.bias f4 [10]
-0.112857476 0.4796645 -0.60767066 0.6313256 -0.42987886 0.60286444 -0.50693107 -0.5090822
0.26959673 -0.20330635
00000000: d221 e7bd 9696 f53e 4e90 1bbf 8e9e 213f
00000010: 1519 dcbe 5355 1a3f 3cc6 01bf 3653 02bf
00000020: 9508 8a3e 8a2f 50be
