saved_model.pt (torch, 623863 bytes, 8 tensors)

conv1.0.weight f4 [32, 1, 5, 5]
00000000: 4654 6cbe 2a47 7ebe 5a99 a7bd ba03 113e
00000010: 74bd 76be f6f2 bfbd 8ef8 823d 2164 6ebe
00000020: 09e8 33be d3b1 c3be f0cd a6bd 532b 46be
00000030: 3053 0bbd 20ac 40be f034 283e c369 05bc
00000040: d167 66bc 349e c6bd d228 53be 9f51 2ebe
00000050: dcac abbd 41a5 97bc 1452 43bc c1dc 97bd
00000060: c626 31be 9112 65be 8fa0 47bc 1732 52be
00000070: 6821 20bd 7078 b1bd 14dc bcbd 5762 13be
00000080: fd45 0cbe c3ae a43c 06cb 03be ff4d c9be
00000090: 6efc 8abe bc96 31be ba1d aebd 2df4 a8bd
000000a0: 83d2 aebd 5c32 f13d 096f 61be 0611 7dbe
000000b0: 8a02 45bc ab6e b1be 4dfd b5be 9c4e aabd
000000c0: c085 60be ca59 53be 5947 203d a960 3dbe
000000d0: dff5 0fbe 530d bdbd 7edb b8bd 51de 003e
000000e0: d165 48be 7530 09be 26e4 10be 5030 b2be
000000f0: 2222 b6be 814a 00bd 8961 40be 0d4c 89be
00000100: 2889 85be 2cd4 8dbe 8de6 223d 02b1 bebc
00000110: e9d3 8fbe 2bed 8fbe 8a23 93be 0025 e4bc
00000120: 9e7b 02bf e90f c3be 2d43 88bd e0b2 46be
00000130: c4da 1cbe 482b 083e 5cee 3abe 7dab edbe
00000140: ad70 88be 4c5f 7bbe 0d77 62be d4fa 83bd
00000150: 98cb 14bd 99ab a3be b400 36bd 793b afbc
00000160: 12a2 30be 6591 83be 6e2c 77bc 4a96 59be
00000170: 9189 26be ac09 133e 2efc 4fbe e74d eabe
00000180: f538 18bd 7f78 87be 2e40 9c3c 8a56 963d
00000190: 360d 8bbe b9a4 31bd b6a0 48be 43c4 59be
000001a0: 3297 f6bd 796d 94be 3beb dcbe 524f 9fbb
000001b0: bfad 09be 9f79 92be b8d6 34be d45f 78be
000001c0: 91f0 20be 2bea c03c 6904 0fbe d5e1 bbbe
000001d0: 8b9d 78bd d96f 7cbe 1000 16be 2f95 de3c
000001e0: 3bde dc3d 1f7e 05be a23a 86be 9464 9ebe
000001f0: 3856 88be 5a10 57be 190d bbbd 6909 4bbe
00000200: 09dd 00be 5636 58be 999e d2bc 4897 6fbc
00000210: 4683 0abd 4760 253d aefe 12be dc6f 1ebd
00000220: 1c40 eebd dd6f 2e3d a7fc ccbd a5ab f3bd
00000230: 972a 3fbe 899a 39be 8ada 3fbc a0c7 cbba
00000240: 53ed 603e 1f0d debd ec45 013d 5034 38be
00000250: 1d92 4fbe d0ea 1ebe 1914 05bf 595c 19bd
00000260: 8f38 dfbe f5bc cebe 4f1a b7bd 12bc 4dbe
00000270: e739 b7bd f351 6ebe c165 d83d a5bc 30bd
00000280: 3de5 3dbe c667 75bd 18d7 8fbe 3016 e7bd
00000290: ac40 a23d efe8 c2bc b9a6 773d ae0e 56be
000002a0: 3422 0dbe 6d3a bf3d 11a6 56bc 1d59 c3be
000002b0: d9fa 68be 24c4 79be 976a b9bb 0dca 69be
000002c0: a2e0 23be 70fc d9bd ee8f f6bd 7d7d 0abd
000002d0: 57b6 f2bb 22c3 5cbe af00 00be 61d4 3abd
000002e0: 3a59 28be 0e27 52be a815 f2bd 7d9a a13b
000002f0: 47b9 fabc 33c9 b2bd 8315 6d3b 08c2 83bd
00000300: 9ceb 3ebe 26d3 69be 54bd d0be d4c1 90be
00000310: c297 5abe 4a19 73be 6a26 2cbe 3b6a b6bd
00000320: a454 eebe 7789 9bbe 43c1 e0bd 4ade 36be
00000330: d435 c6bc 0a6f 37bd b3bb 9c3d bc0b ccbc
00000340: 0e0a 193d 314d 7bbe cc4c 69be 7911 033d
00000350: a55e 90be 4d00 08be 3e1e 43be 7c6d 76bc
00000360: 7e6a 2ebe a5db 99be 4ac9 a5bc a2cb b5bb
00000370: a2f1 d6be 9294 2abc 55bf 353e 7d1e cebe
00000380: 7b06 a3be 4f51 59be 9425 48bd d7f0 24bd
00000390: 373a 82be 20c8 0cbe d5c3 dfbd a712 0cbe
000003a0: 4aa0 60bc 0548 99bd 62dc 03be 5a0a 9abd
000003b0: 0448 5ebb feb1 1abe fb0a 0f3c 2557 10bd
000003c0: f4a3 cdbd 91ee 87bd 47e2 95bb 3ff4 84be
000003d0: 38dc 76be bcfe 88be d0d9 faba 2653 29be
000003e0: 0990 0ebc e1ee 79be f5aa 77be c6b2 20be
000003f0: e18d 84bb c1e4 15be dadb 9ebe 6be7 c73a
-0.23079023 -0.24831834 -0.08183546 0.14161578 -0.24095708 -0.09372513 0.06395064 -0.23280384
-0.17568983 -0.38221607 -0.08144748 -0.19352464 -0.03401488 -0.1881566 0.16426444 -0.008142891
-0.014062838 -0.096981436 -0.2062104 -0.17023323 -0.0838258 -0.018511416 -0.011921424 -0.07415152
-0.17299947 -0.22370364 -0.012184276 -0.2052692 -0.03909436 -0.0866555 -0.09221664 -0.14392982
-0.13698573 0.020102864 -0.12870416 -0.3931732 -0.27145714 -0.17342657 -0.08501764 -0.08249698
-0.08536246 0.117771834 -0.22015013 -0.24713525 -0.012024531 -0.34654745 -0.35544816 -0.08315775
-0.21926022 -0.2063972 0.039130542 -0.18493904 -0.14058636 -0.09231057 -0.0902624 0.12584807
-0.1957009 -0.13397391 -0.14149532 -0.34802485 -0.35572916 -0.031321052 -0.18787207 -0.26815835
-0.26081204 -0.27700937 0.03977065 -0.023277763 -0.28091362 -0.28110632 -0.28738052 -0.027849674
-0.50969875 -0.38098076 -0.06653438 -0.19404173 -0.15317827 0.1329776 -0.1825499 -0.46419898
-0.26648465 -0.24548072 -0.22115727 -0.06444326 -0.036326975 -0.31966856 -0.044434264 -0.021390663
-0.17249325 -0.25696865 -0.015086276 -0.21248737 -0.16263415 0.14359158 -0.20311043 -0.4576256
-0.037163693 -0.2645912 0.019073572 0.07340725 -0.27158517 -0.043369982 -0.19592556 -0.21266274
-0.12040557 -0.2898977 -0.43148217 -0.0048617506 -0.13445185 -0.28608415 -0.17660034 -0.24255306
-0.15716769 0.02354916 -0.13966526 -0.36695734 -0.06069712 -0.24652041 -0.14648461 0.027170746
0.107845746 -0.13036393 -0.26216608 -0.3093611 -0.2662828 -0.21002331 -0.091333576 -0.19827808
-0.12584318 -0.21114478 -0.02571039 -0.014623471 -0.0338166 0.04037502 -0.14354965 -0.038680896
-0.11633322 0.04258715 -0.10009127 -0.11897973 -0.1866859 -0.18125357 -0.011709819 -0.0015547164
0.21965532 -0.108423464 0.031560823 -0.17988706 -0.20270582 -0.15519261 -0.5198379 -0.037441585
-0.43597838 -0.40378538 -0.08940565 -0.20091274 -0.08946591 -0.23273449 0.10566283 -0.043148655
-0.18544479 -0.05991342 -0.2809379 -0.11283529 0.079224914 -0.023792712 0.060461733 -0.20904037
-0.13782579 0.09337316 -0.013101117 -0.38153926 -0.22751941 -0.24391228 -0.0056584585 -0.22830983
-0.1600366 -0.10643852 -0.12039171 -0.03381108 -0.0074069905 -0.21558812 -0.12500261 -0.045612697
-0.16440287 -0.2052271 -0.11820537 0.0049317465 -0.030605925 -0.08729782 0.0036176152 -0.06433493
-0.18644565 -0.22834453 -0.40769446 -0.2827288 -0.21346954 -0.23740116 -0.16811529 -0.089069806
-0.4654895 -0.30378315 -0.10974362 -0.17858234 -0.02419559 -0.04478363 0.07652988 -0.02490794
0.037363105 -0.24541165 -0.22783202 0.031999085 -0.28197208 -0.13281365 -0.19054505 -0.015040752
-0.17032811 -0.30050388 -0.020237584 -0.0055479566 -0.41981226 -0.0104113985 0.17748769 -0.40257636
-0.31840882 -0.21222423 -0.048863962 -0.040268745 -0.2543504 -0.13748217 -0.10926024 -0.1367899
-0.013710091 -0.0748444 -0.12877038 -0.07521506 -0.0033917436 -0.15106961 0.008730645 -0.035239358
-0.10041037 -0.066373 -0.0045740935 -0.25967595 -0.24107444 -0.26756847 -0.00191384 -0.16535625
-0.008701333 -0.24407531 -0.24186309 -0.15693197 -0.0040452336 -0.14638044 -0.31027108 0.0015251463

conv1.0.bias f4 [32]
00000000: 7e08 8abd f531 a5be 8e1e 2ebe 87dd 54bb
00000010: b6b7 b73d 9ffc 67be 6bc0 bcbe 81d3 fdbe
00000020: d3cd 06be 9de8 64be 7f4d d2be 9c33 32be
00000030: ecd5 eb3f fd3a ad3e 7f6b ce3f 3985 2abe
00000040: 8792 fabd b9b1 86be 8c0a 50be 8eb5 adbd
00000050: f9ed abbe fa7b eabd a2d7 f6bd 0aed e3bd
00000060: 4ee3 a8be 6e70 1f3e 13fe 03be 7b5f 6f3d
00000070: ad88 8bbe 4a58 b1bd 1dbd 9dbe 47c5 9dbc
-0.06739901 -0.32264677 -0.17003843 -0.0032480673 0.08970587 -0.22654961 -0.36865553 -0.49575427
-0.13164453 -0.2235436 -0.4107475 -0.174025 1.8424659 0.33834067 1.6126555 -0.16652383
-0.12234979 -0.26307467 -0.20316523 -0.084818944 -0.33579996 -0.11449428 -0.120528474 -0.11129196
-0.3298592 0.15570232 -0.1288989 0.058440667 -0.27252713 -0.08659418 -0.30808344 -0.019259108

conv2.0.weight f4 [64, 32, 5, 5]
00000000: c0df 55bd e5bb 48bd 9ebf 76bd 3bac 98bd
00000010: e998 80ba de73 86bd 8137 82bd e65a 17bd
00000020: 8e92 06bd 616f a8bd 0228 a4bc 0199 d8bd
00000030: eade 84bd ccb2 8fbd fbeb 66bc f981 53bd
00000040: 540c a5bd 78e6 85bd 88ee 9abd 5f39 0ebd
00000050: 8665 98bd db2b 03bd a34c b5bd fdd8 bbbd
00000060: 5f31 2fbd 56ff 63bd 829e 8ebc c00c 97bd
00000070: 1ae1 13bd 6550 1dbd 492b a03a d046 993b
00000080: 5c21 dd3a 6b86 76bd 485b 84bd 1438 0fbd
00000090: 7b04 abbc a9dd babc c415 0cbd 1e85 b4bd
000000a0: 4b21 0abd e672 a1bd f9b5 e9bd 946e a8bd
000000b0: 91b7 98bc 04be 55bd 66f2 78bd 8d43 07bd
000000c0: a087 b4bc eae6 67bc e88c 95bd a34b eebd
000000d0: a40c 79bd b33c 6fbd 5621 8cbc 2f36 9cbd
000000e0: 7359 b3bd 3540 4ebd 3991 52bd 14fe bbbc
000000f0: 9e3d 6dbd c41b 40bd 51ea c3bc 5aba a2bc
00000100: 74c9 7cbc caaa 09bd 8175 c6bd 4b26 8dbc
00000110: e687 97bd 69d4 3bbd d20c ccbc bf89 92bd
00000120: 5a12 33bd c885 d4bd ca7b 8abd f2db 93bd
00000130: 4cc5 40bd d670 53bd a1e7 48bd bda5 14bd
00000140: f68e 06bd 35da 58bd cb83 87bc dd81 28bd
00000150: a5ee bdbd e213 aabc 79fd 64bd a883 9abd
00000160: f130 78bd d7df 46bc 2625 cfbd 04fb 5abd
00000170: 54b7 89bc dd90 66bd 41db 87bd e592 7cbc
00000180: d225 16bd d563 5bbd 2b77 cbbd 495c 73bd
00000190: 8c7e 84bd 7fb1 56bd 0778 babd cbcd 91bd
000001a0: 2a66 1fbc 2bca 7bbc cb9f a7bc 14df 63bd
000001b0: cc43 dcbc f551 5abd 9165 0ebd 7782 0f3c
000001c0: b5fa 71bd 2d88 40bd 5e35 493c 3692 7d3c
000001d0: 3504 b3bd acde a6bd 9de4 67bd 36e9 80bc
000001e0: b270 b8bd 8390 7cbc 8eca 4cbb 1862 6cbd
000001f0: eb01 a8bc 08db 8cbd 5a39 b0bd abe7 3bbd
00000200: 8161 a8bc a908 52bd b58f 8fbd c22b 23bd
00000210: 3b45 96bd 4813 67bd 0e4d 66bd bf2f d5bb
00000220: 1df5 4abd 77b2 2ebd 9231 60bd 2dbe e6bc
00000230: c5fb 4cbd efd2 3bbd 9bbf 89bd 8cd8 45bd
00000240: fcdc 8cbd d650 55bd 169c 98bd 295b b5bd
00000250: 8d99 37bd 47ce cabc 3613 95bd c4da 6fbb
00000260: 4356 81bd 9cb1 3fbc c536 1dbd 0f49 0bbd
00000270: 4f27 4fbd ac58 31bd 5b9a fabc 2894 6bbd
00000280: a0e7 9abb aea4 6fbd 252c 6dbc 5d44 49bd
00000290: acb7 23bb cd8d 1abd f8df 9ebd 204f cfbd
000002a0: 14ba cdbc 53d3 81bd ead5 88bc 6b02 82bd
000002b0: 1993 cdbc 4f34 35bd 4363 8dbd 1373 4fbd
000002c0: 135b 643d 0957 613d 404f 33bd c4b0 7cbd
000002d0: c66b c1bc a818 3a3c f4b8 f1bb e986 77bd
000002e0: 1710 a4bc c004 e6bb a909 10bc 7bc3 80bd
000002f0: 66e4 28bc a149 70bd 7af3 44bd 5c52 87bd
00000300: 6593 e9bd 4099 b9bd e733 39bd fd48 23bd
00000310: 6edf 88bd acc8 cbbc 7243 6dbd 1fa3 40bd
00000320: 7fd8 c9bd 7ddd 90bd e071 13bc 1032 fcbb
00000330: 7c0c e5bc b763 dbbc f43f d8bb 3a47 ddbb
00000340: 853c bdbc 2a17 56bc d925 803b 2c8b 37bc
00000350: f3e6 d1bd 8644 10bc c944 1dbd 06bf ccbd
00000360: a21b d8bd 2a17 32bd 8eb5 2dbd b291 82bb
00000370: f003 87bd 0240 a6bd 253b 03bd c21b 36bc
00000380: c483 59bd 6265 98bd 6eaf 76bd 0619 9abd
00000390: d276 713c 1ea3 c7bc f19b f33b 6566 bebb
000003a0: 1468 58bd bb02 c2bd 23ef 89bc 409a 16bd
000003b0: 8719 34bd 5d01 85bd 1cc9 39bc 87b0 9bbd
000003c0: 89e4 cc3a 5668 b2bd 84b5 32bd cb8b d53c
000003d0: 4787 22bc 262b a0bd c884 8f3c 0526 b73c
000003e0: cdae f93b 0412 b3bd 5813 ce3b 5d4b 34bd
000003f0: 307b efbc c82e 79bd 4bc2 4ebd 5a91 f53b
-0.052215338 -0.049007315 -0.060241334 -0.07454725 -0.0009811196 -0.06565069 -0.06358243 -0.036951922
-0.03285461 -0.08224369 -0.020038608 -0.10576058 -0.0648783 -0.07016525 -0.014094348 -0.051637623
-0.08058992 -0.06538099 -0.075650275 -0.034722682 -0.07441239 -0.032024246 -0.08852508 -0.091722466
-0.042771693 -0.05566343 -0.017409567 -0.07375479 -0.036103345 -0.03840675 0.0012219931 0.004677631
0.0016870904 -0.060186785 -0.06462723 -0.03496559 -0.02087616 -0.022810774 -0.034200445 -0.088144526
-0.033723157 -0.07883243 -0.11411662 -0.08224216 -0.018642219 -0.052183166 -0.060778044 -0.033023406
-0.022037327 -0.014154175 -0.07302266 -0.1163552 -0.06080307 -0.058407497 -0.01710574 -0.07627522
-0.087572955 -0.0503542 -0.051408026 -0.022948302 -0.05792009 -0.04690148 -0.023915442 -0.01986425
-0.01542889 -0.033610143 -0.09690381 -0.017230174 -0.073989674 -0.045856867 -0.024908457 -0.07155179
-0.043718673 -0.10377079 -0.06761892 -0.072196856 -0.047063157 -0.05162128 -0.049049024 -0.036290873
-0.032851182 -0.052942473 -0.016542336 -0.041139472 -0.092740335 -0.020761434 -0.055905793 -0.07544643
-0.06059355 -0.0121383285 -0.101145074 -0.053462043 -0.01681105 -0.056290496 -0.06633616 -0.015415882
-0.036657162 -0.053562004 -0.09934839 -0.05941418 -0.064694494 -0.052415367 -0.09104925 -0.0711933
-0.009728948 -0.015368025 -0.020461937 -0.055632666 -0.026887797 -0.053300817 -0.03476483 0.008759133
-0.059076983 -0.047004867 0.01228079 0.015476754 -0.08741037 -0.0814794 -0.056614507 -0.015736204
-0.0900587 -0.015415314 -0.0031248662 -0.057710737 -0.020508727 -0.068777144 -0.08604689 -0.045875233
-0.020554306 -0.05127779 -0.07009832 -0.039836653 -0.073374234 -0.056414872 -0.05622583 -0.006505936
-0.049550164 -0.042650666 -0.054734774 -0.028166855 -0.050044794 -0.04585546 -0.06725999 -0.04830222
-0.06878087 -0.052079044 -0.07451646 -0.08855278 -0.04482417 -0.024756564 -0.07279055 -0.00365989
-0.06315281 -0.01170006 -0.03838231 -0.03400522 -0.050574597 -0.043297455 -0.03059118 -0.05751434
-0.004727319 -0.05850666 -0.014475857 -0.049137462 -0.0024981303 -0.037732888 -0.077575624 -0.10122514
-0.025113143 -0.06339135 -0.016703565 -0.063481174 -0.025094556 -0.04423934 -0.06903698 -0.050646853
0.055750918 0.055014644 -0.04377675 -0.061692014 -0.02361096 0.011358418 -0.0073767845 -0.060431395
-0.020027203 -0.007019609 -0.008791366 -0.06287285 -0.010308361 -0.058663968 -0.04808376 -0.06607506
-0.114050664 -0.09062433 -0.045215514 -0.03986453 -0.06683241 -0.024875961 -0.05792565 -0.047030564
-0.098557465 -0.070734955 -0.008999318 -0.0076963976 -0.027960055 -0.026780946 -0.0065994207 -0.0067528756
-0.023100147 -0.013067046 0.003910762 -0.011202615 -0.10249128 -0.0088054 -0.038395677 -0.09997372
-0.105521455 -0.043479122 -0.042409472 -0.0039846534 -0.06592548 -0.08117677 -0.032038826 -0.011115016
-0.053104177 -0.07441212 -0.060225897 -0.07524304 0.014737802 -0.024369773 0.007434361 -0.005810546
-0.05283363 -0.09473177 -0.016837662 -0.036768198 -0.043969657 -0.06494401 -0.011339452 -0.07602029
0.0015632074 -0.08711307 -0.043630138 0.026067635 -0.009919948 -0.0782073 0.01751937 0.022356996
0.007619715 -0.087436706 0.006288927 -0.044017185 -0.029233545 -0.06083563 -0.05047826 0.007494134

conv2.0.bias f4 [64]
00000000: 801f 96bd fe20 073f ef33 83bf a78c 63bd
00000010: 2b15 fdbe 00ee 87bd d794 bcbd 6441 e13f
00000020: 7f86 0d3c a5c1 45bf b9e7 23be 69cb 533e
00000030: 6284 73bd dd4b 6abf eb56 803f 7fd2 923e
00000040: d367 06bc 358d a9bd 98e3 31be ce88 f7be
00000050: fe81 76be d2d3 b9bd f32f 84bd 6ff4 16be
00000060: c357 08bf 9122 85bd 0a93 efbd 901b 0bbd
00000070: 79b1 51bf 25b7 0f3e a8cd d0bd ea1d 2fbe
00000080: 163e 1dbf 6dee e3bd c6fa 933e eee8 8b3f
00000090: 6360 24bd 7933 c83c a8aa 39bf 546f 3dbf
000000a0: 32ca f3be b292 e93f 1d47 71bd bd1b 40be
000000b0: 4294 78bd 0462 10be c761 733f e6e1 18bf
000000c0: 3289 aebd 78e1 0cbd 718c 30bd b735 01bf
000000d0: bd23 b5bd c403 8d3f b1ef 9cbe 0afd a63e
000000e0: 60c2 3ebd 5949 1340 30f2 08be 6b93 7bbd
000000f0: 6ff1 1ebe 300e bcbd 13bf a13e baa2 9ebe
-0.07330227 0.5278472 -1.0250224 -0.05555406 -0.49430212 -0.06637192 -0.092080764 1.7598081
0.008638023 -0.77248603 -0.16006364 0.20683064 -0.059452422 -0.9152201 1.0026525 0.2867622
-0.008203465 -0.08278886 -0.17371976 -0.4834656 -0.24073026 -0.09073605 -0.06454458 -0.14741682
-0.53258914 -0.06500734 -0.11697967 -0.033961833 -0.81911427 0.14034708 -0.10195476 -0.17101255
-0.6142286 -0.111294605 0.28902262 1.093046 -0.040130984 0.024438607 -0.72526026 -0.73998
-0.476152 1.8247893 -0.05890571 -0.18760581 -0.060688265 -0.1409989 0.9507107 -0.59719694
-0.08522262 -0.03439471 -0.043102685 -0.5047259 -0.08844707 1.1016774 -0.3065162 0.32614928
-0.04657209 2.3013518 -0.13373637 -0.061419886 -0.15521787 -0.091823936 0.3159109 -0.30983526

conv3.0.weight f4 [64, 64, 5, 5]
00000000: b934 2bbd 2b04 57bd 864a 36bd 4a50 99bd
00000010: 0c2f 9ebd fb44 89bd 0a6d 11bd c2d8 82bd
00000020: 8cc3 84bd 641c 6cbd 4652 98bd bcfc 41bd
00000030: 30b3 42bd a4b0 3dbd c116 133d 8523 27bd
00000040: 33e4 30bd 1a30 75bd e60f 81bd b163 18bd
00000050: 3c8e 88bd 751f 4dbd 2d4b 19bd b9bd 2dbd
00000060: 9649 a23d ab7e 24bd aef6 1bbe 28e1 29bd
00000070: a3c9 d6bc 9ada e23d c1c9 8dbd b1fa 69bd
00000080: b954 c43d 91de 65bd d428 a9bd 8b0e 4dbd
00000090: 1b18 bbbd 638b 3ebd b6d3 5ebd a66e 9bbd
000000a0: cdd6 92bd a023 dbbd 13f1 a8bd 5a54 38bd
000000b0: c7e6 1cbd a202 65bd b4eb 3ebd 98de 2dbd
000000c0: 25a5 55bd 5a04 21bd d8e5 3c3d 6552 733d
000000d0: cdd9 cabd 4f82 79be 1cc4 933d 56a5 413e
000000e0: 0245 a33d 5dda 21bd e336 343e f19c c4bd
000000f0: f8ee a13e 5a23 e7bc 057f 85bd 3cf6 8cbd
00000100: 3a5b 92be 5be5 23bc b913 10bd fbbd a7bc
00000110: 0fbf c73c 9c94 c5bd 5361 23bd 8804 c4bd
00000120: e5fa 0abf 520a 50bd a186 f1bd 7ce5 293d
00000130: 9bef 6ebd 2dbe 64bd 83a4 5ebd 2ce7 88bd
00000140: b780 98bd 1ad8 85bd 09de a8bd 75d5 5fbd
00000150: b407 72bd dce8 a4bd 1de6 4ebd 7410 1dbd
00000160: db01 6f3d 91e2 5ebd ff07 9dbd 7871 803d
00000170: 4d6c 93bd d355 88bd 4328 7ebd 0e07 6dbd
00000180: 5222 70bd 12f7 74bd 24bb 8dbd 5f36 56bd
00000190: 9fb4 27bd 9b28 96bd 962b 33bd 9858 7f3d
000001a0: 7ad7 10bd 9030 a3bd faa9 a8bd 7451 1cbd
000001b0: 3893 acbd bf77 31bd bc17 80bd ae44 60bd
000001c0: 637a a3bd fc9c 3ebd afa5 20bd 7402 2abd
000001d0: 5653 87bd 57ff 83bd cd7b 66bd c237 8ebd
000001e0: 1b1d 66bd 672b 88bd 8da2 b7bd 051e 49bd
000001f0: b530 45bd c6b0 6bbd ffd9 803d c03d 19bd
00000200: 92bc 463d edfd 20bd 3a03 8ebd 3641 71bd
00000210: e629 68bd 29b8 19bd 7486 10bd 3949 5dbd
00000220: e7ee a5bd 6d01 aabd e229 563d 57b3 a1bd
00000230: 9d5f 4ebd dcb3 84bd d894 38bd c209 81bd
00000240: 3bf3 22bd 1658 63bd 4471 abbd f4fd 20bd
00000250: 718e 5dbd 69f9 82bd e043 18bd d316 21bd
00000260: 253d 1dbd 741a a1bd 0303 a1bd 723e 3bbd
00000270: 178b 3dbd 3b0e 9b3d 72ed 35bd bb79 5bbd
00000280: b7eb 1ebd be82 67bd bbe0 49bd 48da a3bd
00000290: 1816 2cbd b92f 49bd 1713 32bd a603 28bd
000002a0: 8f53 293d 02dc 77bd 425d a6bd a402 55bd
000002b0: 7cf6 32bd d4e4 8ebd eb44 36bd 1930 3cbd
000002c0: 722d 54bd feea 223d 8544 27bd 9b44 abbd
000002d0: 95d9 95bd 56ae 9ebd 0265 a2bd 1f0b 7e3c
000002e0: 1df4 86bd 6d8f 96bd 3a8c 5dbd d924 bdbc
000002f0: 2399 2bbe 9650 3cbe b1d6 48bd 7a4a 82bd
00000300: 2be6 5bbd 7b20 febc b57b 12bd ed24 41bd
00000310: 5dec 02be b7fb 9cbd fbc8 b2be e215 d1bd
00000320: 8ae6 febc f580 1cbd 8642 cfbd b911 69bd
00000330: f1c9 29bc a2c2 c6bd 82d2 02bd 4b1d 2cbe
00000340: cef5 06be b074 d0bd fa74 13be 9799 293d
00000350: 3b2b 64bd 919a eebd 3206 c4bc af23 4cbd
00000360: 24ed 57bd 1c9f 90bd a74c c9bd c20e 813d
00000370: 8044 d1ba 6b94 03be 5180 97be 9bfd 2bbe
00000380: 4159 65bd 14b6 a8bd 29af 75bc 4d8b 87bd
00000390: a165 23bd ba28 16bd 5cb0 97bd 10f2 5abd
000003a0: 402c 3abd 6794 8dbd a5b3 7ebd eafe 93bd
000003b0: 4e1f b1bd 36e3 91bd ace8 76bd 4a4e 9dbd
000003c0: 4772 2fbd 3a53 75bd 1bc7 aebd f07c 81bd
000003d0: 05a3 48bd dfe0 51bd 7104 a4bd a102 12bd
000003e0: ba14 18bd ddd1 9abd 5c76 73bd 66ae 46bd
000003f0: c98d 58bd e9e9 69bd 625a a7bd be82 68bd
-0.041798327 -0.05249421 -0.044504665 -0.07486017 -0.07723817 -0.0670261 -0.03550438 -0.063889995
-0.0648261 -0.057644263 -0.074375674 -0.047360167 -0.047534168 -0.046311036 0.03591037 -0.04080536
-0.043186378 -0.059860326 -0.063018605 -0.037204448 -0.06667754 -0.050078828 -0.03742521 -0.04241726
0.07924192 -0.040159862 -0.1523082 -0.04147449 -0.026219195 0.11076851 -0.06923247 -0.057123844
0.09586472 -0.05612046 -0.082597405 -0.050062697 -0.09135457 -0.04651965 -0.054401122 -0.07589464
-0.07169876 -0.10700154 -0.08249106 -0.04500232 -0.038306024 -0.055910714 -0.046611503 -0.04244861
-0.052159447 -0.03931079 0.046117634 0.05940475 -0.099048235 -0.24366115 0.07215139 0.18910727
0.079721466 -0.039514888 0.17599063 -0.09600247 0.3162763 -0.0282151 -0.06518368 -0.06882903
-0.28585225 -0.010003413 -0.03517506 -0.020476332 0.024383096 -0.096474856 -0.039887737 -0.09571177
-0.54289085 -0.050791092 -0.117932566 0.04147862 -0.058333974 -0.05584543 -0.05435611 -0.066847175
-0.074464254 -0.06535359 -0.08245475 -0.054646928 -0.059089378 -0.08052227 -0.050512422 -0.03834577
0.05835138 -0.05441529 -0.07667541 0.062716424 -0.07198391 -0.06656995 -0.062050115 -0.057868056
-0.05862648 -0.059805937 -0.0692046 -0.052297946 -0.040943738 -0.07331964 -0.04374274 0.06234035
-0.035361744 -0.07968247 -0.082355455 -0.038163617 -0.08426517 -0.04332709 -0.06254527 -0.054752998
-0.07982328 -0.04653643 -0.03922051 -0.041506246 -0.06607692 -0.064451866 -0.05627041 -0.06944229
-0.0561801 -0.06648903 -0.08966551 -0.049100894 -0.048142154 -0.05754163 0.062915795 -0.037412405
0.04851968 -0.039304662 -0.06934209 -0.05890008 -0.056680582 -0.037529144 -0.035284474 -0.05402491
-0.08102208 -0.08301053 0.052286036 -0.078955345 -0.050384153 -0.06479618 -0.045063823 -0.06300689
-0.039782744 -0.055503927 -0.08371213 -0.03930469 -0.05409092 -0.063952275 -0.037174106 -0.039328407
-0.03838839 -0.07866374 -0.078619026 -0.04571385 -0.046275225 0.075710736 -0.0444159 -0.053582888
-0.038799014 -0.05652117 -0.049286585 -0.08000618 -0.042013258 -0.049117777 -0.043475237 -0.041019104
0.041339453 -0.06051255 -0.08123256 -0.05200447 -0.043692097 -0.06977239 -0.04449932 -0.045944307
-0.051801153 0.039774887 -0.04083683 -0.08362695 -0.07316891 -0.07748096 -0.07929422 0.015505581
-0.0658953 -0.07351575 -0.05408881 -0.02308886 -0.16757636 -0.18390116 -0.04903287 -0.063618615
-0.053686302 -0.031021347 -0.035762507 -0.047154356 -0.12785478 -0.07665198 -0.3491896 -0.10209252
-0.031115789 -0.03820892 -0.1012011 -0.056901667 -0.010363088 -0.09705092 -0.031939037 -0.1680805
-0.13179705 -0.101785064 -0.14400092 0.04140624 -0.05570529 -0.11650575 -0.023928735 -0.049838718
-0.05271639 -0.07061598 -0.098290734 0.06301643 -0.0015965849 -0.12849586 -0.29590085 -0.16795962
-0.055993322 -0.08237854 -0.014995375 -0.066183664 -0.039891843 -0.036659934 -0.07406685 -0.053453505
-0.045452356 -0.06913071 -0.06218304 -0.072263554 -0.08648549 -0.07123415 -0.060280487 -0.07680948
-0.042833593 -0.059893824 -0.0853407 -0.06322658 -0.048983593 -0.051239844 -0.0800866 -0.03564704
-0.03712914 -0.075595595 -0.05943905 -0.048506163 -0.05286959 -0.05710784 -0.08171536 -0.05676531

conv3.0.bias f4 [64]
00000000: fe24 90be 3a84 9dbe fac4 97be 3c55 acbd
00000010: 6c3b 8bbd 6a73 3cbe 643a 34be 20c0 17bf
00000020: 8078 89be 2c31 a9bf 664a 3cbe 9e2c ccbf
00000030: 3224 75bd 5e1a 69be f051 36bf 5198 81bf
00000040: 26e4 a1bf c194 f6bd 65c9 0abd 4918 03be
00000050: 1bb2 4dbe 99cb 69bf 8cff b53b e9c2 16bf
00000060: d286 82be 9341 09bf 8749 aebf 1088 bf3e
00000070: 813c 17bf 2ff7 3bbf 2d1d 5bbf f1ba 14be
00000080: e135 a2bd 6e5f 94be 9ae0 89bf ae39 33be
00000090: 53ca c5bd 326b 9dbf d770 95bd 10b1 6fbf
000000a0: c9e7 28bf cf27 243e c273 2cbf 1e68 2dbf
000000b0: 6dfc 5ebf fbf7 0abe 9072 f8ba f332 16bf
000000c0: 8cda c2bd 3c95 3cbf fec9 b5be 7f00 63bf
000000d0: bfdc 8cbe a890 8cbe daad b4be 4cfc 71bf
000000e0: b6b4 43bf 141f 54bd f7f7 13bf c475 f7be
000000f0: faa2 2dbd 1710 aebd caae 273f 562e 7dbf
-0.28153223 -0.30764943 -0.2964247 -0.08414695 -0.06798443 -0.18403402 -0.176004 -0.59277534
-0.26849747 -1.3218131 -0.18387756 -1.5951116 -0.05984897 -0.22763965 -0.71218777 -1.0124608
-1.264775 -0.12040091 -0.03388347 -0.12802233 -0.20087473 -0.9132629 0.005554145 -0.5889116
-0.25493485 -0.53615683 -1.3616189 0.37408495 -0.59076697 -0.7342405 -0.85591394 -0.14524437
-0.07920433 -0.28979057 -1.0771668 -0.17502472 -0.09657731 -1.2298338 -0.07296913 -0.9362955
-0.65978676 0.16030811 -0.6736413 -0.67736995 -0.8710392 -0.1357116 -0.0018955041 -0.5867149
-0.09514341 -0.73665214 -0.3550567 -0.8867263 -0.27512166 -0.27454114 -0.35288888 -0.945256
-0.7644762 -0.05178745 -0.5780024 -0.48332036 -0.042391755 -0.08499163 0.6550108 -0.9889883

fc.weight f4 [10, 64]
00000000: 9495 d1bc 1afb 563e 83bb 0abd 0277 873c
00000010: f76a d13d 9ab4 bc3c e16e e13d 2bc8 0b3e
00000020: ac57 99bd 99eb 693d 9a63 67bd b45d 02bd
00000030: cc72 5abc 9927 863c 017d 323d dd4b 373d
00000040: 6555 883d 60ff 80bc 4602 8cbb f73d be3d
00000050: c47d 0fbd 4b1d 053d 5e28 e73d 5e22 65be
00000060: 0754 e53d b7b6 9c3d c7f7 e4bc 6987 66bd
00000070: d769 cd3d 8af4 d73b 7cc4 543c 1d8c db3d
00000080: caad 683d e7b7 f1bc 07f7 20bd b2ad cebd
00000090: ff02 b1bd 942a 31bd 252f a8bc 1a38 acbd
000000a0: 08b1 3f3d cc2a d0bd a51a 5ebe 963a 14bd
000000b0: 6462 f03d bda6 743d 4268 4bbc 9ec8 c4bd
000000c0: c95d c6bc c670 e03d a9e4 35be ce6d d7bd
000000d0: ad42 2fbd 6c36 85bd 906a 2ebe 3250 28bc
000000e0: ab79 25bd 23b0 123d 185d 203d c195 123d
000000f0: 05f5 7d3d bf46 83bd 120f 1a3d 98ba 263e
00000100: bfd4 acbd e660 0f3b 596e d6bd cb03 32bc
00000110: ce13 08bd a6a4 2b3e c0b9 93bc 48dd 72be
00000120: cf6e 233e 5df2 b23c 792e f83d 2bd6 05be
00000130: 9ee9 d0bc 0c56 e23d 0089 4e3d c2b5 bf3c
00000140: 537a 8abd c151 953c 6abe 5e3c e38f ec3d
00000150: 10d7 bd3d 6f8c 3abc caf0 1d3e 297c 753d
00000160: a3ef 6a3d 6182 09be b34b c1bb ec88 5a3d
00000170: 99bc d0bc 4f8e a03b 9c0f 443d 39ec e5bd
00000180: 0e8b 1c3e 823f ea3d bb8d 5bbc 3118 363e
00000190: cd36 99bd 71f9 03bc ec4e 27bd 867e b2ba
000001a0: bb20 9ebb 5acc 0c3e ccdc 39bc 35cd 523d
000001b0: d4ff 9cbc 9cd7 133e 8dfe 89be 4a3d 123e
000001c0: 39b3 543e 742b 603d 5977 59be c5bb 863d
000001d0: cdd1 af3d aca4 aabc 9fb6 f93d 4006 37bd
000001e0: 42a4 723d f8f0 32bd 37ee 913a 9aeb 59bb
000001f0: b9ec a5bd e7b2 8cbd c02e 84bf c10f 8fbd
00000200: 1859 66bd 0d41 74bd 7ca5 453d 8de1 473d
00000210: 7b58 7bbd 5185 3d3e 05c6 54bd 9b4c f63d
00000220: 3a9f ce3d cc48 debd bea3 7c3d 5dab 0abd
00000230: a23a 57bd 2562 fa3c 4e4d d83b 06bd bbbc
00000240: 11dd 7c3d 2932 95bb 479e 933d f3f2 6ebd
00000250: eb5e 033e be42 133a 6f4e 35bf d748 303d
00000260: 2215 603b f070 36bb 0efc df3c a887 0d3e
00000270: d753 6f3c 7ec4 563d 456c da3c 6419 9f3c
00000280: fe90 0abe 154e 103e b3d3 e73d b120 4e3e
00000290: 77ac e9bd f5b1 e83c 72f8 13bc a885 1b3d
000002a0: 56e4 403d 375a 353e e800 6b3d 41bc 913e
000002b0: 48f4 aebc 68f8 4a3d b41d 21be d329 d23b
000002c0: 2805 c23d c7ac 573c a8ce 09be 08a6 febb
000002d0: 0e31 683b 5f5a 7abd f036 c1bd 10f0 4dbd
000002e0: ee5f 1d3e 664c e33c 26cd 053e c9e4 00bd
000002f0: 7c0a 43bd 3c97 1cbe 6b8b 5d3c 396d 073d
00000300: a5b9 34bd aece a3bb a06d 2f3e 3ea0 bcbc
00000310: a652 ddbd 9c3a 243d cd63 19bd b7ae 49bd
00000320: 262f 84bc 324a d5bc 062e 11bd 1fbc debd
00000330: fdde 1a3d 0ea4 61bd f667 f23c 20fb 343d
00000340: d68b a9bc e47f b5bd 6619 803c a6f1 ddbd
00000350: 1fcf 7abb efdb 21bc 2f33 3fbd ec56 21bb
00000360: ad10 363c 320d 1e3e c089 fc3d ce85 e93d
00000370: 0195 193c 0f05 883d 7278 633c 2d94 3dbc
00000380: 4a1e dd3b 80d2 353d 5ab7 7e3d 61ff 903d
00000390: 5b86 f8bb 3850 753d d0bc 6cbd 6b12 b43d
000003a0: 9391 4d3d 106f b53d ffec b43d 228c a23c
000003b0: ee38 c6bc 0acf 8e3d 20ca cebd 5fcc a4bd
000003c0: d111 1a3d a36d 06bb 822a 32bd a216 be3d
000003d0: 3670 a3bd f9ff f2bd 2f33 d33c be58 a3bd
000003e0: 2584 bd3d 0c87 aebc 377b 243d eecd c7bc
000003f0: 031d 8abd e7d5 dcbc 47ef 983d 5f4c e1bc
-0.02558402 0.20994225 -0.03387023 0.01653624 0.1022548 0.023035336 0.110074766 0.13650577
-0.07487425 0.05710945 -0.05649147 -0.031827644 -0.013333034 0.016376304 0.043576244 0.044750083
0.06656913 -0.015746772 -0.004272732 0.092891626 -0.03503205 0.03249864 0.11286996 -0.22376391
0.111976676 0.076520376 -0.02795018 -0.05628148 0.10029953 0.0065904306 0.012986299 0.10720084
0.056806363 -0.029506637 -0.039298084 -0.100917235 -0.086431496 -0.043253496 -0.020530293 -0.08409138
0.04679969 -0.10164413 -0.21689852 -0.036188684 0.117375165 0.059729327 -0.012414994 -0.09608577
-0.024214642 0.1095901 -0.17763008 -0.105189905 -0.042788196 -0.06504521 -0.17032838 -0.010273026
-0.040399235 0.03581251 0.03915128 0.035787348 0.062001247 -0.06409978 0.03761203 0.16282117
-0.084390156 0.0021877824 -0.10470266 -0.010865162 -0.033222012 0.16762027 -0.018032908 -0.23717225
0.15960239 0.021844083 0.12118239 -0.1306998 -0.025502022 0.110515684 0.050423622 0.023402099
-0.06761613 0.01822746 0.013595203 0.11550882 0.092695355 -0.011386021 0.15423885 0.05993286
0.05735744 -0.13428642 -0.0058989166 0.053353235 -0.025480555 0.004899777 0.04786645 -0.112266965
0.1528742 0.114378944 -0.01340049 0.17782666 -0.074811555 -0.008055077 -0.04084675 -0.0013618029
-0.004825679 0.13749829 -0.011344146 0.051465232 -0.019164957 0.14437717 -0.2695202 0.14281192
0.20771493 0.05472894 -0.21236934 0.06578783 0.08584938 -0.020830475 0.12193035 -0.044683695
0.05923868 -0.043686837 0.0011133616 -0.0033252002 -0.08101792 -0.068700604 -1.0326767 -0.06985427
-0.05623731 -0.05963235 0.04825352 0.048799086 -0.06136368 0.18507887 -0.05194666 0.1202633
0.10088964 -0.10853729 0.061679594 -0.03385483 -0.05254615 0.030564377 0.0066010123 -0.022917282
0.061734263 -0.0045530987 0.072079234 -0.058337163 0.12829177 0.00056175503 -0.70822805 0.043038215
0.0034192284 -0.0027838312 0.027341869 0.1382128 0.014607391 0.052433483 0.026662955 0.019421287
-0.13531873 0.14092286 0.11319675 0.20129658 -0.11409848 0.028405169 -0.009031402 0.03796926
0.047092758 0.17710195 0.05737391 0.2846394 -0.021356717 0.049553305 -0.15733987 0.0064136772
0.0947364 0.013163752 -0.1345774 -0.0077712573 0.003542963 -0.06112134 -0.094343066 -0.05027777
0.15368626 0.02774639 0.13066539 -0.031468187 -0.04761742 -0.15292066 0.013522009 0.033063147
-0.044122357 -0.0049990034 0.17131662 -0.023025628 -0.108067796 0.040094957 -0.037448693 -0.049238887
-0.016135763 -0.026036356 -0.035444282 -0.10875725 0.037810314 -0.055088095 0.029590588 0.044184804
-0.020696562 -0.08862284 0.01563711 -0.108371064 -0.0038270426 -0.009879096 -0.04667967 -0.002461846
0.011112374 0.15434721 0.12330961 0.11402474 0.009373904 0.0664159 0.013883697 -0.011570972
0.0067479955 0.0443902 0.062186576 0.0707996 -0.007584376 0.059890956 -0.057797253 0.087925754
0.05018766 0.08859074 0.08834266 0.019842211 -0.024197068 0.06973083 -0.10097146 -0.08046793
0.037614647 -0.0020512126 -0.04349757 0.092816606 -0.07980387 -0.11865229 0.025781242 -0.079759106
0.0925372 -0.02130463 0.04015657 -0.024390187 -0.06743815 -0.026957465 0.074675135 -0.027502237

fc.bias f4 [10]
00000000: 8156 88bd 674f 68be 4fe5 17be 512c 873e
00000010: 9937 e53e 35d5 823d ee98 63bf 2bf2 bfbe
00000020: f37b 653f 9392 3d3e
-0.06657124 -0.2268654 -0.14833568 0.26400998 0.4476898 0.06388322 -0.8890523 -0.37489447
0.89642256 0.18512945
